model.pth (torch, 902760 bytes, 8 tensors)

conv1.weight f4 [32, 1, 3, 3]
00000000: db71 1b3e d66c 8d3e fc93 9d3e 7255 703d
00000010: 8a36 5cbe 6ea3 a63e 2982 42be e8ff edbd
00000020: 355a 26be 8e02 ad3d 35da 7fbd 720f 92be
00000030: d7fa 9dbe 77f3 633e 6b30 89bd 0809 f63d
00000040: d0b2 853e 05ac a03e efe8 893d c681 883e
00000050: dfc7 35be 6da1 913e 2fb5 77be c0a6 0c3e
00000060: 1d30 3ebd 3753 47be e176 47be 1135 debd
00000070: 63ae ca3c 486b 6b3d 3905 cbbd c3dd 393e
00000080: a459 843e 8cec a5bd 48e9 e23d 30fc 823e
00000090: 94a7 97be efe2 033e b105 a63e d943 cf3d
000000a0: 107f 4c3e 8f20 11bd cdfa 83be 574d 47be
000000b0: 13bd 29be 1a49 25be f217 7bbe a30b fa3d
000000c0: 0e6f d6bd fb07 183e 7688 103e be70 fbbd
000000d0: 4c04 af3e 9dab ee3d 4463 263e 311c a2be
000000e0: cbdc aebe 860b aa3e f324 143e c4ee 7fbe
000000f0: de98 cb3d 39ce dd3d 98f1 f73c 950b cc3d
00000100: baf7 683e aa75 88be c416 6abd 0838 603d
00000110: 2ad3 33bc 8f94 933e 7c69 973d 8c65 5fbe
00000120: e9cb 3bbe 500e d53d 5a5a 4fbe 015c 203e
00000130: 29f7 08bd eab2 0e3e e980 853e 0f08 42be
00000140: 608e f13d c102 9d3d 1efa 8cbe 1db0 793e
00000150: d72b 363e b092 4cbe 97f7 1a3e 7bcd af3e
00000160: 8cb4 a43e 5d28 a73c 12b8 96bd 58cf 0fbe
00000170: 7f0d 303e fa47 8abe eef6 9bbe 18b3 15be
00000180: 2cad 61be 78a5 163e 1cfe acbe 4c4b b3bd
00000190: a429 a33e 186a 223e 8599 f9bc ee86 ae3e
000001a0: be00 e1bd f0ee 1cbd 8df1 54be 1cb8 68be
000001b0: 8cdb af3d 834e 803d 84b6 4d3e f6c7 22be
000001c0: 4344 1b3e 14f3 e9bd da63 5cbe 1218 143e
000001d0: e7b5 9b3e e459 05bd 8879 99bd 90b1 313c
000001e0: 810a a13e 48d4 75be 215c 12be cbf8 b43d
000001f0: 909a 9e3d eace ad3d be2e 77be 182c 8abe
00000200: eae7 5ebe fdce 9abe ef77 58be b82f 55bd
00000210: 9f62 043e 431c 4c3d 3a83 4d3e d182 4dbe
00000220: 4547 9f3d 1283 a4be 66b2 f0bd 0ebf 2dbe
00000230: 228b a03e 2cb6 58bd 4787 173e 3afd 793e
00000240: 1888 8ebe 43e3 12be bb97 9e3e 417d 8ebe
00000250: 32d9 ad3e b7df a33e 46a3 02be cf5d 73be
00000260: b381 2cbe ed05 1b3e ed51 4ebd 117b 8b3e
00000270: 26ee 363d 2302 763e a67a d53b 551e 05bc
00000280: e38e 853e 6ae8 173e 5ac7 e0bd e728 523e
00000290: d480 51be dbdf aa3e e43c 873e 8102 ed3d
000002a0: 0229 9b3e a2c0 71be ab13 133c 9c1c b0be
000002b0: 25f7 96be 0c3e 6f3d 26fe cd3c 9abb e53c
000002c0: edba 62be 82e2 513c b11a 96be 1225 053e
000002d0: 0c7c 87be 11c0 b73c f272 313e 0628 0abe
000002e0: 0877 473d aaec 3e3e 489c 7e3e b6e5 eabd
000002f0: 20d3 73be 00a0 94be bf6c f1bd 2f87 abbd
00000300: c3d6 e6bd a213 603e e905 2b3e bc30 303e
00000310: adf1 6b3e e9e4 f7bd 2e97 ab3e 2373 c1bd
00000320: ea7b af3c bdab 763e d7a2 a0be 24f7 f8bd
00000330: 3b0c 4ebe 0dbe a2be 2f39 183d c64a 9a3b
00000340: 7c88 f4bd b31b b43e 845b 1abd 9cd4 033e
00000350: 7318 063e 38dd 89be 25b0 003e ee21 833e
00000360: 961b 9f3e bdcc 35be 42eb 84be a69e 8a3c
00000370: 02eb a13e 7a58 513e 11c8 433e da5c 803e
00000380: 626a bf3d 1b36 52be 74ae 87be bfdc 663e
00000390: 9ae9 4d3d b79b bbbd 4713 6b3e e52d 6cbe
000003a0: 8076 10bd 27e9 fabd a5c7 26be 7be7 033e
000003b0: 6236 623d 77a0 92be 7c20 873d cd19 af3e
000003c0: 410c 75be d6c6 a33e 644a a23e f182 2fbe
000003d0: ce34 bcbd bdbc 10be 15c1 9cbe 733e 383d
000003e0: f549 ca3d 33f0 30be 16a0 8ebd e2e1 a2bc
000003f0: 571e c73d 3677 80be 54eb 4f3c f233 9e3e
0.15180151 0.27622098 0.30776966 0.058675237 -0.2150518 0.32546562 -0.18994965 -0.11621076
-0.16245349 0.08447753 -0.062463958 -0.2852741 -0.30855438 0.22260843 -0.06698688 0.12013441
0.26112986 0.3138124 0.06733882 0.2666151 -0.17752026 0.2844347 -0.2419021 0.13735485
-0.046432603 -0.19465338 -0.19478942 -0.10849965 0.024741357 0.05747536 -0.099131055 0.18151002
0.2584964 -0.08101758 0.11079651 0.2558303 -0.2962004 0.12879537 0.32426217 0.10120363
0.19970345 -0.03543144 -0.25777283 -0.19463097 -0.16576032 -0.16141167 -0.24520853 0.12209251
-0.10470401 0.14846794 0.14114556 -0.12277363 0.34182966 0.116538264 0.16248804 -0.31662133
-0.34152827 0.33211917 0.1446722 -0.24993426 0.099412665 0.108303495 0.030266568 0.099631466
0.2275075 -0.2665227 -0.057150617 0.054740936 -0.010975638 0.2882428 0.073931664 -0.21816081
-0.18339504 0.104031205 -0.2024931 0.15660097 -0.033438835 0.13935438 0.26074913 -0.18948387
0.11794734 0.07666541 -0.27534574 0.24383588 0.17790161 -0.19977832 0.1513351 0.34336457
0.32168996 0.020404989 -0.073593274 -0.14043939 0.17192648 -0.2700804 -0.3046183 -0.146191
-0.22038716 0.14711559 -0.3378762 -0.08754596 0.31867707 0.15860784 -0.030468712 0.34087318
-0.1098647 -0.038313806 -0.2079527 -0.22726482 0.08586797 0.06264975 0.20089155 -0.15896592
0.15162759 -0.114233166 -0.21522465 0.14462307 0.30412218 -0.03255643 -0.07493883 0.010845557
0.31453326 -0.2400676 -0.14292957 0.08836516 0.07744324 0.08486731 -0.24138924 -0.26986766
-0.21768156 -0.30236045 -0.21139501 -0.05204746 0.12928246 0.04983164 0.2006959 -0.20069434
0.077772655 -0.3213125 -0.11752777 -0.16967413 0.3135615 -0.052908108 0.14797698 0.24413005
-0.27838206 -0.14344506 0.30975136 -0.27829936 0.3395477 0.32006618 -0.12757596 -0.23766254
-0.16846351 0.1513898 -0.0503711 0.2724233 0.04466071 0.24024253 0.006514865 -0.0081249075
0.26085576 0.14834753 -0.10975523 0.20523416 -0.204593 0.33373913 0.26413643 0.11572743
0.30304724 -0.2360864 0.008976857 -0.34396827 -0.2948543 0.058408782 0.025145601 0.028043557
-0.22141619 0.012810351 -0.2931724 0.13002422 -0.26461828 0.022430452 0.17329004 -0.1349183
0.0486975 0.18644968 0.24864304 -0.11469595 -0.23811007 -0.2902832 -0.1178832 -0.083753936
-0.11271431 0.2188249 0.16701473 0.1720609 0.2304141 -0.12104208 0.33513778 -0.09445789
0.021421392 0.2408895 -0.31374237 -0.12156513 -0.20121853 -0.31785622 0.03716391 0.0047086207
-0.11940095 0.35177383 -0.037684932 0.12874073 0.13095264 -0.2692659 0.12567194 0.25611824
0.31075734 -0.17753883 -0.25960737 0.016921353 0.3162461 0.20443907 0.19119288 0.2507084
0.09346463 -0.20528452 -0.26500285 0.22545145 0.050271608 -0.091605596 0.22956572 -0.23064382
-0.03526926 -0.122515015 -0.16287096 0.12881272 0.055227645 -0.2863805 0.06597993 0.34199372
-0.23930456 0.31987637 0.3169738 -0.17139794 -0.09189759 -0.14134498 -0.3061606 0.04498143
0.098773874 -0.17279129 -0.06964128 -0.0198831 0.09722584 -0.2509095 0.012690384 0.30899006

conv1.bias f4 [32]
00000000: 0a6d 423e 50c3 84be 1644 243e 3cbe 38bb
00000010: 3a30 9abe 0dfd 91bc ba30 7c3e 0639 2dbe
00000020: e8fd 0f3e 5622 febd ab43 ac3e e09c 4cbd
00000030: 5ea3 06be cf16 023e eed7 373e 13b7 963e
00000040: 34d4 35be 4393 c43d 4721 3dbe 909e ec3d
00000050: e967 5abd b7eb 05bd a2d2 d03d 9e97 08bd
00000060: 126d ba3d b83d 2d3d 5001 983d 6888 293e
00000070: 32ee aa3e 4aff fdbd 4bf0 843c 2049 473d
0.18986908 -0.25930262 0.16041598 -0.002818956 -0.3011492 -0.01782086 0.24627963 -0.16916284
0.14061701 -0.12408893 0.33645377 -0.049954295 -0.13148257 0.12704013 0.17953464 0.2943655
-0.1775673 0.095984004 -0.18469726 0.11553681 -0.053321753 -0.0326955 0.10196425 -0.03334772
0.09102835 0.042295188 0.07422125 0.16555941 0.33384854 -0.12402208 0.016227862 0.04865372

conv2.weight f4 [64, 32, 3, 3]
00000000: 1693 f73c 2a49 fabc 8ff2 32bd d35e e5bb
00000010: 7156 033d 77b7 e5bc e553 563d fca4 04bd
00000020: e79b 103d e2c7 52bc 7f20 493d ab95 b0bc
00000030: ca47 f83c 9f07 1bbc 6935 3c3d 5a32 6cbd
00000040: 563d 483c c1c4 a53c caef 853c 5602 3dbd
00000050: de9d bebc 415e 21bd 3eb7 0abd 3959 f8bc
00000060: d6e6 8f3b f8f0 de3c 9692 0abd e765 8f3d
00000070: 4568 0d3d 7371 4cbd 9c8a 15bd e4da 55bb
00000080: e116 b6bc 4280 063c 8b91 643d d838 bfbc
00000090: 8578 36bc b066 b0bc 86a8 22bd e649 e9bb
000000a0: d0d1 c23c 9d8e 92bd 7f14 733d fa80 d1bc
000000b0: b956 09bd 88d6 95bc 0d1d 7b3d 93ba 203c
000000c0: 6762 ff3c 8ecf a03d ca95 093c bfb7 913d
000000d0: 3b5b 233b 6ec1 613a b3c7 01bd 5ee9 8e3b
000000e0: 6059 833d eaac debc 73de 89bc a33e 623d
000000f0: 36cf 82bd 7b4b b13c 7203 9e3d 1bce 31bd
00000100: b979 a8bc a4bd 3c3c 87d8 063d b365 12bd
00000110: 88de 6c3b bacc cfbc b49d 7a3d fdcb 3d3d
00000120: 5e92 dc3b 2c94 a6bc 67d1 863d e160 6dbd
00000130: ddb4 f9bb 2a48 0fbc 62b0 873c 0d41 883d
00000140: 3fd7 9f3a 606a 26bd 24b9 333d e2cb 8f3d
00000150: c84a 77bb fece eabc 6246 1f3b 28e7 fdbc
00000160: 789d 1b3c d1fa 9cbb cb8e 48bc 5e32 123d
00000170: 2f7c 74bd 92f0 b2bc b12e 07bd 2122 c53c
00000180: 06a0 99bc 2e9e 813b 83e4 97bc bf2a 9e3a
00000190: d66f 25bd 297f 84bd d478 163d ef07 283d
000001a0: daa1 45bc bc03 223d 8c4c 4abb 9b29 e33b
000001b0: 456a 103d d20b 8f3d 1522 52bd ca2a 463c
000001c0: 40c6 ad3c fc7a a63b 26f5 2c3d 8312 8e3c
000001d0: 9517 a5bc 086c 443d 9ded 943c 8e5d 933d
000001e0: 4054 57bd 2c70 1a3d 79f4 353d 91de fdbc
000001f0: e57b e33c d5f0 18bd f895 20bd 134b 283d
00000200: f0b7 3cbc ec5f 93bc 9042 75bc c3a7 1dbd
00000210: 7885 533b b319 733c d526 e23c 0943 283d
00000220: da05 34bd e16d 0d3d d189 7d3d c965 163d
00000230: ac15 4fbd 2a96 a1bc f848 6f39 d475 80bd
00000240: a0b2 9a3c f53f 9e3d 4bdd 77bd 1cc8 9f3b
00000250: 669c 9f3d 567e 62bd d29b d03c a49d 7b3c
00000260: 2b8c 5b3d 79ff 033d d396 f6bc f66d bc3c
00000270: a926 20bd 168b 0ebc 23b8 0dbd dd6c a13b
00000280: 1c05 9c3d d56d 363d 9c39 2dbd 3231 89bc
00000290: c450 0dbc 811a 16bd 5a4f babc 1c73 1e3b
000002a0: 3eae 81bd 8ea9 e33c a4c5 113d 55d1 dd3b
000002b0: c005 0b3d 60c5 c03c d0dd 6438 0380 333d
000002c0: 7360 0b3d 72b1 013d 600e 663c b864 49bd
000002d0: 770e dfbc 1d90 c3bc 3034 f93c 91e4 063c
000002e0: b2f8 ddbc 1ca5 523a a6a6 ec3c a359 ae3c
000002f0: ad72 48bd 0ea2 903c f7ef 10bd f395 08bd
00000300: 2a99 a7bc 6553 fa3b 6687 1ebd 36dd 903d
00000310: 14bf cd3c f416 48bd 5167 0d3d 9fbc 853c
00000320: 3193 b9bb 0b06 8fbd 6ec7 c9bc 8f15 dfba
00000330: fd61 c2bc 8799 65bc 5200 3ebc 628f 973d
00000340: 2f76 423d 0805 c3bc 229f 89b9 cd5f edbc
00000350: 532b 9bbc 8937 e9bb ce59 923d cb85 083d
00000360: dfda 643d 7fa5 883d 9a02 41bb 1ab5 6d3d
00000370: ff04 933d be1f 403d 62d8 a13c 813c 7b3c
00000380: 7bd7 993d 40fd 213c 73c0 593d 4139 89bd
00000390: 5976 e4bc 91ff e5bc dfb7 81bd b40f 26bd
000003a0: 38ee 8d3d 9b36 733c ae40 423d 74bc 843d
000003b0: 4d12 0cbd 6d28 1bbd 1023 e8bc c98f debc
000003c0: 7e78 9dbb a380 463d 20d9 893c a2ff 8f3c
000003d0: 8608 0a3c b266 fcbc 2cc1 d1bc 21d0 3abd
000003e0: 2cbd 083c f71a 04bc 67db 673b 4656 323a
000003f0: 029e 503d 3d0c 3d3d 45f3 d2bc 595f c63c
0.030221503 -0.030552465 -0.043688353 -0.0069998293 0.03206486 -0.028041584 0.0523261 -0.032383904
0.03530493 -0.012865039 0.049103256 -0.021555742 0.03030767 -0.009462266 0.045949373 -0.057665206
0.012221655 0.020235421 0.016349692 -0.046144806 -0.023268636 -0.03939653 -0.03386616 -0.030315982
0.0043915315 0.027214512 -0.0338312 0.07001858 0.034523267 -0.04991288 -0.03650914 -0.003263169
-0.022227706 0.00820929 0.055802863 -0.023342535 -0.0111371325 -0.02153334 -0.039711498 -0.007119405
0.023781687 -0.071561076 0.05934572 -0.025574196 -0.03352997 -0.018290773 0.061307 0.009810108
0.031174852 0.07852088 0.008397529 0.07115125 0.0024926204 0.0008611892 -0.03168459 0.0043613156
0.06413531 -0.027182061 -0.016829705 0.055235516 -0.063871786 0.021642437 0.07715501 -0.043409448
-0.020565854 0.011519823 0.03292134 -0.03574152 0.003614338 -0.025366176 0.061185554 0.046337117
0.0067313155 -0.020334326 0.06582909 -0.05795372 -0.0076204375 -0.008745233 0.016563598 0.066530325
0.0012194886 -0.04062879 0.043877736 0.070213094 -0.0037733782 -0.028663155 0.0024303426 -0.030994013
0.009497993 -0.004790642 -0.012241076 0.035692565 -0.059688743 -0.021843228 -0.033003513 0.024064125
-0.018753063 0.003955624 -0.01854158 0.0012067183 -0.04038986 -0.064695664 0.036736324 0.04102319
-0.012062514 0.039554343 -0.003086838 0.00693245 0.035257597 0.069846764 -0.051302034 0.012095163
0.021212697 0.005080579 0.04222598 0.017342811 -0.020152846 0.04795459 0.01817971 0.071955785
-0.05257058 0.03770463 0.0444226 -0.030989917 0.027769038 -0.03733905 -0.03920552 0.04108722
-0.0115184635 -0.017990075 -0.014969483 -0.03849007 0.0032275598 0.01483767 0.027606407 0.041079555
-0.043950893 0.034528617 0.06189901 0.036718164 -0.050557777 -0.019724924 0.00022819999 -0.06272474
0.018884003 0.077270426 -0.060513776 0.00487615 0.077935025 -0.055296265 0.025464926 0.015357409
0.05360047 0.03222606 -0.030101215 0.023001652 -0.03909937 -0.008700153 -0.034599435 0.0049263076
0.07618162 0.044538338 -0.04229127 -0.016747091 -0.008625213 -0.03664637 -0.022742916 0.0024177497
-0.06332062 0.02779081 0.035588875 0.006769339 0.03394103 0.023531616 5.4566015e-05 0.043823253
0.034027528 0.031663366 0.014041513 -0.04916832 -0.027228577 -0.02387243 0.030420393 0.008233205
-0.027096126 0.00080354675 0.028888058 0.021282976 -0.04893749 0.017655399 -0.0353851 -0.033346128
-0.020458777 0.007639336 -0.038703345 0.07073443 0.025115527 -0.048850015 0.03452236 0.016325293
-0.0056632985 -0.069835745 -0.024631228 -0.0017019975 -0.023728365 -0.014013655 -0.011596756 0.07400395
0.04747599 -0.02380611 -0.0002624924 -0.028976345 -0.018941557 -0.007117216 0.07146035 0.03333072
0.055872794 0.06672191 -0.0029451014 0.05803404 0.07178687 0.04690527 0.0197565 0.0153342495
0.07511803 0.00988704 0.05316205 -0.067003734 -0.027888464 -0.028075965 -0.06333899 -0.04054232
0.06930202 0.014844562 0.047424965 0.06481257 -0.03419714 -0.03788035 -0.028337032 -0.027168171
-0.0048056236 0.04846252 0.016827166 0.01757795 0.008424884 -0.030810688 -0.025604807 -0.045608643
0.008345883 -0.00806307 0.0035378577 0.0006803017 0.050931938 0.04615425 -0.025750766 0.024215387

conv2.bias f4 [64]
00000000: d880 07bd db82 1c3d 86b9 1f3d 2021 20bd
00000010: b4f2 8ebc 502d 2ebd e7e9 f43c 19a4 e13c
00000020: 90ba 653b dbd4 373d 099b 753d f404 613d
00000030: 29ec 603d e34e 813d c06d 133d 72e6 313d
00000040: 6fbc 3f3d b05a e3bb 9cf2 86ba 94a7 0bbd
00000050: c681 8b3d 661a b33a 8468 d3bb 71d0 563b
00000060: 1829 7ebc 65f8 8a3c f66d 17bd 84d3 8cba
00000070: 874c 3dbd 91c8 1c3c 4fb3 c1bc 9339 623d
00000080: b291 1abd ca32 0c3d 2d83 363d 09c0 a0bc
00000090: 7382 a3bc 7a90 81bd cd11 f7bc 6a0a 19bd
000000a0: 92fc 47bd 455a fb3c b1cd 303d 22f7 723d
000000b0: 9248 ee3c 3477 0f3b 1a91 ef3c dca2 1abd
000000c0: b362 053d ef6e 8c3c eb84 553b 68e9 83bb
000000d0: 0b6a cebc 39ba 1e3a 3832 463d 24a7 23bd
000000e0: cd2a 43bd 293f 28bd 0aa2 353d fd98 be3c
000000f0: 20f7 23bd 4bb5 6cbd b264 873d f92a 903d
-0.03308186 0.03821073 0.03899529 -0.03909409 -0.017449714 -0.042523682 0.02989669 0.027544068
0.0035053827 0.04488073 0.059962306 0.054936364 0.05491272 0.063138746 0.035993338 0.04343266
0.046810564 -0.006938301 -0.0010295692 -0.03409536 0.06811862 0.0013664484 -0.006451668 0.003277805
-0.015512727 0.016964147 -0.0369701 -0.0010744189 -0.04621556 0.009569303 -0.023645071 0.05523069
-0.037736602 0.034228124 0.044558693 -0.01962282 -0.019959664 -0.06326385 -0.030159855 -0.037363447
-0.048824854 0.030682692 0.043164913 0.059317715 0.029087339 0.002189112 0.029243995 -0.03775297
0.03256483 0.017142741 0.0032580446 -0.004025627 -0.02519705 0.0006054971 0.048387736 -0.03995432
-0.04764824 -0.04107586 0.044343986 0.02326631 -0.0400306 -0.057790082 0.06611003 0.070394464

fc1.weight f4 [128, 1600]
00000000: 56ba 0dbd 2353 99bc e211 e63b 88be d63c
00000010: 429e debc d80a 33bc 7ae7 89ba 41fc 40bc
00000020: 9205 9aba e1e9 143c ae33 093d f73e 2e3d
00000030: d1ee 1b3c 5f7b 023c 644a 143d c133 df3c
00000040: fcd9 b13b 0177 11bd a62a 793c 44d7 b93c
00000050: bc45 013c caa1 8c3b dae1 07bd 5970 09bc
00000060: 90a3 cb3c f5be b1bc 80cc b6bb 3133 1abc
00000070: 95ff 763c de35 893b ca26 1eba 872c 813c
00000080: 5915 1abb 3e85 7cbb 5f9a eebc 99a4 123d
00000090: df1b 8b3c bb42 6bbc 9043 34b8 94f2 e33b
000000a0: b02e 1dbc d246 0b3d 1f7d 1bbd 27bf 353c
000000b0: 75b3 c63c abc3 0bbd 55a1 0bbb b8b7 d0bc
000000c0: eb26 333d 1c94 c7bc e0c5 fbbc c027 8d3c
000000d0: ca92 773c 52d9 32bb 9f0e 803b 36fb 8f3c
000000e0: 66b8 28bd 3e06 9bbc dd6a 1d3c 94f0 a1bc
000000f0: 4737 df3c a0bb efbc 0141 dcbc ce3f 8e3a
00000100: 8c4f 3dbc 50ab 25bc 9fa3 783c b0a4 333b
00000110: fd7f 363c b6a2 5e3c 68da 87bc 7682 133d
00000120: f10e 053d 50c0 b0b9 65c7 373c 8b79 a3bc
00000130: 2702 2d3c 4b5f f13b 4511 c83b d7a7 f0bb
00000140: 60e8 213c 86fc 2a3b 883e c9bc e271 81bc
00000150: 6a61 5d3c a061 233c 24e2 123c baaf 71bb
00000160: 0f4a abbb 3fa4 3a3c c25e 183d 2726 1f3d
00000170: 9a6e 573b 94ab 093d 544e 123d c9bb c23c
00000180: 6dde 9c3c eb63 28bc 764e 993c 07b1 9b3c
00000190: e5d2 43bc c105 efbc 8fc1 abbc e6b7 b3bb
000001a0: 2c91 e339 739f d93b 8395 9ebc 886e 093b
000001b0: a06f eabc 3204 d53b 2e55 dd3c 6388 f53b
000001c0: a89e 9d3c 0704 02bd d859 733b b3da f63c
000001d0: 5034 0d3d 1b42 9c3c 42ff 8ebc e0e7 a23c
000001e0: b541 f7bc 706e fa3b bd91 293d 0e02 eabb
000001f0: 5e84 d13a 4efe 20bd e9c8 97bc 8120 7f3c
00000200: 0454 b6bc c9b0 20bd 6809 4b3b 9341 bd3c
00000210: e69a 7f3b 7307 553b 3053 353c 37f5 c53b
00000220: ca9a a23c 1012 513c 75bb 403c bebd aa3b
00000230: ff46 053d e0c5 b73c 1e55 933c ea0b 8f3c
00000240: 3da0 233d 2359 f2bb 6c44 8abc f8b9 70bb
00000250: a05c 6c3c 189f 203c 576d 46bc 3705 b4bc
00000260: 7477 efbc 0883 05bb 8e44 223c 3098 fcbb
00000270: c2d8 f4bc 2cca 6ebc d1f8 d7bc 2687 adbc
00000280: f820 6bbc ca53 303c bd54 ae3c 548a 01bd
00000290: c333 113c 9d04 323b 53c9 333d dba1 303d
000002a0: 77d6 bfbc 2210 f83c 0a6d e8bc 3880 1e3d
000002b0: 69c6 903c 6fa1 a5bc 76b8 b93c b1b1 cbbc
000002c0: 3685 0c3b f5eb 193c e575 8a3c 41e1 023d
000002d0: dc75 e8bc 0052 21bb 3e3a 753c 8c46 50bc
000002e0: befd 2cbc 9a63 ec3b 861e 93bc 5e50 263c
000002f0: e3ca 5c3c a55c f8bb 1e0f fa3c 6933 0d3d
00000300: c649 e23c 291e 323a ee50 053d 29db 153d
00000310: b6a8 0d3d be0f 7e3c b9d3 dd3c de83 a1bb
00000320: 00bf 9fba 3aef 75bc 9668 7f3c 55a0 c2bc
00000330: 6c22 87bc e825 36bb 70b1 a2bc 8359 883c
00000340: be39 4b3c 1b6e c43c 0e64 653c cae9 693c
00000350: b6dd 013c c468 e23b f994 9c3c 10c8 92bc
00000360: c16b c83c 27b2 b33c ac47 8e3b 111b 873c
00000370: 7370 7abc 8cd5 883b 9a09 9cbc 43c7 59bc
00000380: 7069 713b 0d26 b2bc fe4f 09bd 7dca 75bc
00000390: a403 d3bc fc3d b4bc 7c49 023d 3647 31bc
000003a0: 23b0 4b3b 2b1a e03c ce27 a8bc 4f5e 963c
000003b0: 29d0 2c3d a6b5 d0b9 b842 55bb 2a63 f73b
000003c0: 6a60 233d 6b48 43bb 4b91 1dbd 3c4b a73c
000003d0: 6a98 20bd 765e 563c 773c afbc 0ac0 2c3c
000003e0: 5e2b ee3b c7c5 20bc 8cd5 0ebd 1e25 a83c
000003f0: 3a9f 4abc 7b3c 91bb b641 f7bc 2086 bdbc
-0.034601532 -0.0187164 0.0070211748 0.0262139 -0.027175073 -0.010927878 -0.0010521256 -0.011778892
-0.0011750928 0.009088964 0.03349655 0.042540517 0.0095173875 0.007963984 0.036203757 0.027246358
0.005427597 -0.03551388 0.015207922 0.022685654 0.007890161 0.0042917477 -0.033174373 -0.008388602
0.024858266 -0.0216975 -0.0055785775 -0.009411619 0.015075584 0.0041873297 -0.00060330017 0.015768303
-0.002351126 -0.0038531567 -0.029126344 0.035801504 0.016981063 -0.0143591715 -4.2978267e-05 0.006956408
-0.009593651 0.034003086 -0.03796112 0.011092938 0.024255494 -0.03412215 -0.0021305878 -0.025478229
0.043738287 -0.024362616 -0.030734003 0.017230868 0.015110681 -0.0027290178 0.003907993 0.017575841
-0.04119148 -0.018923875 0.009607998 -0.019768037 0.027248038 -0.029264271 -0.026886465 0.0010852756
-0.01155461 -0.010111645 0.015175729 0.0027411394 0.011138913 0.013588598 -0.016583636 0.03601309
0.032484952 -0.0003371262 0.011216973 -0.019955417 0.010559595 0.007366096 0.0061055743 -0.007344227
0.009882063 0.0026090457 -0.02456595 -0.015801374 0.013511995 0.009972006 0.008965049 -0.0036878423
-0.0052273343 0.011391698 0.037199743 0.038854744 0.003287232 0.033610895 0.03571923 0.023771184
0.01914903 -0.010277729 0.01871417 0.019005312 -0.011952137 -0.029177548 -0.02096632 -0.005484569
0.00043404975 0.0066413223 -0.019358402 0.0020970423 -0.02861768 0.0065007443 0.027018156 0.007493065
0.019240692 -0.031742122 0.0037132408 0.03013358 0.034473717 0.01907449 -0.0174557 0.019885957
-0.030182699 0.0076425597 0.041398752 -0.007141358 0.0015984883 -0.039305024 -0.018528419 0.015571714
-0.022256859 -0.039231095 0.0030980948 0.023102557 0.0039002239 0.003250566 0.011067197 0.006041195
0.0198492 0.012760654 0.011763443 0.0052106073 0.03253841 0.022433221 0.017984923 0.017461736
0.039947737 -0.00739588 -0.01687833 -0.003673194 0.01442638 0.009803556 -0.01211103 -0.021975143
-0.029231764 -0.002037229 0.00990404 -0.007708572 -0.029888514 -0.014574569 -0.026363762 -0.021182608
-0.014351122 0.010762164 0.02128064 -0.03162606 0.008862439 0.0027163394 0.04389317 0.043123107
-0.023417694 0.03028113 -0.028372306 0.038696498 0.017672734 -0.02021858 0.022670966 -0.024865003
0.0021441705 0.009394635 0.01690192 0.0319531 -0.028376512 -0.0024615526 0.014967499 -0.012712132
-0.010558544 0.007214022 -0.01795889 0.010150997 0.013476106 -0.0075794035 0.030524787 0.034472857
0.027623069 0.00067946553 0.032547884 0.03658596 0.034584723 0.015506683 0.027078496 -0.00492905
-0.001218766 -0.015010649 0.0155889 -0.023758093 -0.016495906 -0.002779359 -0.01986 0.016644245
0.0124039035 0.023978284 0.014000906 0.014276931 0.007926395 0.0069094617 0.019114004 -0.017917663
0.024465444 0.021935536 0.00434204 0.016492398 -0.015285599 0.0041758474 -0.019047547 -0.013292137
0.0036836527 -0.02174666 -0.033523552 -0.01500189 -0.025758572 -0.022002213 0.03180836 -0.010820201
0.0031080327 0.027356228 -0.020526793 0.018355517 0.042190704 -0.0003980819 -0.0032540988 0.007549663
0.03988687 -0.0029797803 -0.03846864 0.020421617 -0.039207853 0.013084045 -0.021391137 0.010543833
0.0072683534 -0.009812779 -0.034871623 0.020525511 -0.012367064 -0.0044322587 -0.0301827 -0.023135245

fc1.bias f4 [128]
00000000: 2c9b dbbc df68 d23b 29e2 bfbb b58f 50bc
00000010: a3cc 18bc a6f6 b2ba f39d 963b 159f f63b
00000020: 8451 c6ba d380 193d 6d52 5fbc 5bb2 8e3c
00000030: 8a8d 173c 14fc 6f3c f3d6 953c 7908 543c
00000040: 072c 8d3c ef6e 9cbc e052 e7bb 4adc bdbc
00000050: cb1f b7bc 4725 6f3c 3503 91bc 4e87 9d3b
00000060: 4662 e4bc 2c74 65bc 7d4b b0bc bef1 9a3c
00000070: ed8d c3bb 52d5 7f3c 64f1 e23b b016 4abc
00000080: 5340 853c 2efc f53a 2e5d c63c f0af b93c
00000090: f1a4 b23c 3e03 7e3c 7d2d f93b e253 153b
000000a0: abf2 95bb 0543 7f3c 96bd 133d d4b7 4b3a
000000b0: 1bca 08bb b017 aebc bb21 963c d4f1 313c
000000c0: 4a85 fb3b 491a 6c3b 963a 9c3c 0749 54bb
000000d0: 4042 0d3c 2466 10bc 83b2 283d a3e7 03bb
000000e0: c591 b1bc 3610 483c d6bc df3c 39e0 653c
000000f0: a255 f0bc fbc8 2a3c ec39 dabc 2009 44bc
00000100: 59f9 8a3c 9175 bab9 6541 f83c ffc1 8d3c
00000110: 4866 6b3b 8555 ae3a 374c e7bc 9ee3 863c
00000120: 128d 0cbc 3e60 123c 98bd 5abc a865 ffbc
00000130: 1bab efbc 1086 0e3b c4fb b0bc 06d1 2d3c
00000140: 900f d93c ae52 abbc d7d6 1b3d a293 963c
00000150: 04e3 e83c 371c b73c 05a0 c33b 230a c6bc
00000160: bccb fe3c d5df b63c ba67 aebb 95af 9bbc
00000170: ba57 ba3a f5aa a3bc c86e df3a 0c9c 8e3c
00000180: 7941 ccbb b82b 343c d584 0a3d 20cf b9bc
00000190: 4e9a a73c a694 ebbc c58f 2bbc 400c d2ba
000001a0: ec4f dc3c bfb5 133c f97c c1bc 5272 7ebc
000001b0: 3d4f 803c c842 a43c 0c45 103c 0a80 7dbc
000001c0: f1e1 ca3b 8eb6 353b e035 93bb f47e d83b
000001d0: 58ef 7abb 0f33 be3c b5c7 32bc 6485 babc
000001e0: 77d9 7dbc bad5 6fbc 1c78 dc3c d995 ccbc
000001f0: 03f8 653c 50c4 c8ba 71c5 8b3c 1270 50bb
-0.02680739 0.006421193 -0.005855818 -0.012729575 -0.009326133 -0.0013653829 0.0045964657 0.0075262883
-0.0015130495 0.037476372 -0.013630492 0.01741903 0.009250054 0.014647502 0.018290972 0.012941473
0.017232908 -0.019095866 -0.00705944 -0.023176331 -0.022354027 0.01459629 -0.017701725 0.0048073893
-0.027878892 -0.014004748 -0.02152037 0.0189141 -0.0059678466 0.015614824 0.0069257487 -0.012334511
0.016266024 0.0018767172 0.024214353 0.022666901 0.021807166 0.015503703 0.0076042996 0.0022785594
-0.0045760474 0.015579944 0.036069475 0.0007771228 -0.0020872417 -0.02125153 0.01832663 0.010860879
0.0076758014 0.003602641 0.019070905 -0.003239216 0.008621752 -0.008813415 0.041185867 -0.002012708
-0.021675954 0.012210896 0.027311724 0.01403051 -0.029337708 0.010423894 -0.026638947 -0.011965066
0.016964601 -0.00035564278 0.03030462 0.017304419 0.0035919119 0.0013300633 -0.028234584 0.016465958
-0.008578556 0.008934079 -0.013350867 -0.031176403 -0.029256394 0.0021747388 -0.021604426 0.010608917
0.026496679 -0.020913448 0.038046684 0.018380944 0.028428562 0.022352321 0.0059700035 -0.024174755
0.031103007 0.022323528 -0.0053224238 -0.019004622 0.0014216818 -0.01997898 0.0017046565 0.017408393
-0.006233391 0.0109967515 0.033818085 -0.022681773 0.02045932 -0.028757405 -0.010471289 -0.0016025379
0.026893578 0.0090155 -0.023619162 -0.015530186 0.015662784 0.020051375 0.008805525 -0.015472421
0.006191485 0.002772722 -0.0044925064 0.006606931 -0.0038289633 0.023217706 -0.010911872 -0.022768684
-0.015493742 -0.014638359 0.026912741 -0.024973797 0.014036181 -0.0015317295 0.01706192 -0.003180508

fc2.weight f4 [10, 128]
00000000: 3109 1dbc bb16 eebc e8da 723d 7f18 4b3d
00000010: 9216 703d 9cdd 893d aff0 583d cbbb 073b
00000020: ed99 66bd 6d46 66bb 4209 be3c 7056 b03b
00000030: 1862 5c3c 15d9 7a3c 3b2b 82bd 62c5 c5bd
00000040: e9cf a1bd 8100 03bd 4a4e 0f3d bba8 08bd
00000050: 46f4 03bd 9af8 94bd 137b 863d 54f0 c9bd
00000060: 7c70 52bd a56e 39bd bc9d 1ebd 3c7b 063d
00000070: 3e2d 2f3d f41a 593d 1774 13bd ebfb 3ebd
00000080: c01d b9bc 0e68 a4bd cc06 b33d e7a4 33bd
00000090: 6b42 b3bd bf71 c23d 11d5 883c 0596 cc3d
000000a0: 488c dcbb fdcb c4bd b90a ab3c 8a04 feba
000000b0: 3197 973d d078 9fbc 54b1 0d3c 9b8a ac3d
000000c0: 0cba f8bc 5a52 d0bd a9b0 353d af84 363b
000000d0: eea4 f5bc ea96 1abd 0a5c d43d 4cf9 a03a
000000e0: becc 483d 10d0 973b 0cc7 2bbd 207e d4bd
000000f0: 1260 40bd 167c 783d 3d8b 8dbc 22f3 a4bd
00000100: 675f 3a3d effe 043d 48ce 2a3d a5ed aa3d
00000110: b398 ccbc 42d6 c13c 3264 cc3b 64f4 c7bd
00000120: 3e1b 98b9 f8dd 4bbd b8cd 7e3d 4e8d ca3d
00000130: c06b 43bc 398d 9d3d dfa8 013d cc16 25bd
00000140: 45aa 733d 5856 0fbc 52ea 98bd 45c6 643c
00000150: ad1f 2ebc 400c 9cba a9e8 823d 6a06 dd3d
00000160: d19a 7dbd 0f57 70bd a0ad 2fbd 51a1 bdbd
00000170: 4eec 17bd 6b84 b63d 8790 e8bb 9ba5 c93d
00000180: 9b44 353c caa8 75bb cb81 ac3d d4e2 f43a
00000190: ddcf 943d 91c1 74bd 9145 65bd 3dca 6d3d
000001a0: 1d61 29bd dfe5 e4bc 6c28 6dbd 16e1 863d
000001b0: 9885 b7bc b2d9 423d 9efc a0bd 6d5f d63c
000001c0: 8210 6e3c 99d6 a9bd 657c d03d b8b8 8fbd
000001d0: 8a85 99bd 9808 cd3c 90e7 cb3c fd80 633d
000001e0: c1a6 9a3d e592 b63d fee7 8eba 6da9 ca3d
000001f0: 1f69 a33d 6fc5 21ba ecbc 24ba f6c2 c1bd
00000200: 3b48 a1bd 28df 95bd 14c0 a7bd 161e 39bd
00000210: 5e33 69bd 19f0 24bc f8d8 0d3d 0969 fbbc
00000220: c963 33bd 74c0 d0bb 4702 bbbd 401a 1fbd
00000230: 5477 a23c fd4a 8bbd a5f9 a3bd 74ed 9439
00000240: 1d24 82bd f894 f1bc e22b 683d b5ec bebd
00000250: c593 43bc e414 d43d de86 abbd fb4a e73c
00000260: 1bb2 73ba d066 a83d 4f1c 64bd f587 be3c
00000270: 1572 d9bd 278e df3c f378 963d c928 bcbd
00000280: 008c cabc f6cc 143b 5c76 d23d 1cfc a5bd
00000290: a263 283d f4ff 01bd 0f2b 0b3d 1178 a8bd
000002a0: 751f c9bd 1341 633d 0e5d ca3d 8a27 65bb
000002b0: 7759 85bd c316 bbbd 29da 9f3a ffcb d43b
000002c0: f724 5a3d b723 e93c 6612 363d bcf4 24bd
000002d0: 5084 ab3c b987 703d 7f65 cd3d 3747 d6bd
000002e0: 40c0 76bd 6146 a5bd afd7 6fbd ee7f 82bd
000002f0: 0efd 9cbd 0e6a 993d 0368 70bd bb94 96bd
00000300: 1169 b1bd ce58 7ebd 4112 c23d 98d4 60bc
00000310: a8fa 75bd 8079 d23b f9f0 46bd 8d01 83bc
00000320: 81c1 1f3d f423 6dbd 2a6d ccbd e69e c4bd
00000330: 6be7 0fbd 0e3e 273d 0e72 a6bd 4e6d f4bc
00000340: b3b8 a93d 96bb 2e3d bbfa 183d 63bb 57bc
00000350: 7ad2 d33d f372 78bd 55aa afbc 5df3 24bd
00000360: 71ac c43c 09b3 b03c 156f 81bd 5116 3ebd
00000370: 86d3 b6bc 527b ebbb 0310 47bd 6e6d 243d
00000380: 01a1 5e3d 6fb9 b9bd b20f 1dbd e4a5 a4bd
00000390: 831b c3bd 50cc 76bb f09c 23bb dc22 a0bb
000003a0: 87a9 dd3b fbf3 dbbd fc31 163d c9b4 3dbd
000003b0: fd57 66bd c91c cfbd 9c81 c23c 3cef 0a3c
000003c0: 09da aebc f2d6 27bd 0277 8bbc db2d b13d
000003d0: 6779 863d 0207 b6bd 5930 fb3c fad2 8cbc
000003e0: a5d1 aebd cf35 aa3d 699e f53c 4c6c bdbb
000003f0: 8af7 02bd 6cb3 a2bb 9dba ddbc 71f2 7dbd
-0.009584711 -0.029063573 0.059290797 0.04958391 0.058615275 0.06731722 0.05296391 0.0020711299
-0.05629914 -0.0035137192 0.023197774 0.005381398 0.013451122 0.015310545 -0.06355902 -0.096567884
-0.07900984 -0.031982902 0.03498677 -0.03336404 -0.03221538 -0.072739795 0.06566443 -0.09860292
-0.051376805 -0.045271534 -0.038724646 0.03283237 0.042767756 0.05300422 -0.035999384 -0.046626966
-0.022597194 -0.08027659 0.08741531 -0.043858435 -0.087529026 0.094943516 0.01670316 0.099895515
-0.00673059 -0.0960922 0.020879136 -0.0019380015 0.07401884 -0.019466788 0.008648235 0.084248744
-0.030362152 -0.10171957 0.04435793 0.0027850082 -0.029985871 -0.03774158 0.103691176 0.0012281328
0.049023382 0.0046329573 -0.041937873 -0.10375619 -0.04696662 0.060665213 -0.017278308 -0.080541864
0.04550114 0.032469686 0.04170063 0.08346108 -0.024975156 0.023661736 0.00623753 -0.09763411
-0.00029011996 -0.049772233 0.062207907 0.09890233 -0.011927545 0.07692952 0.03165519 -0.040304944
0.059488554 -0.008748613 -0.07466568 0.013963287 -0.010627669 -0.0011905506 0.06392033 0.10792239
-0.061915223 -0.058676776 -0.04289019 -0.09259284 -0.037090592 0.089119755 -0.007097307 0.0984604
0.01106372 -0.003748464 0.084231935 0.0018683323 0.07266209 -0.05975491 -0.055974547 0.058054198
-0.04135238 -0.027941642 -0.057899877 0.065859005 -0.02240257 0.04757089 -0.07860683 0.02616855
0.014530303 -0.082928844 0.101799764 -0.07017654 -0.07496174 0.025028512 0.024890691 0.055542935
0.07551337 0.08914737 -0.0010902879 0.09895597 0.07979035 -0.00061710825 -0.0006284255 -0.09461014
-0.07875105 -0.07317954 -0.08190933 -0.045194708 -0.056933753 -0.010067009 0.034630746 -0.030689733
-0.043796334 -0.0063705985 -0.09131294 -0.038843393 0.01983229 -0.06801412 -0.080066 0.00028405676
-0.06354544 -0.02948998 0.056682475 -0.09322492 -0.0119370865 0.10355547 -0.08375333 0.028233996
-0.0009296254 0.08222735 -0.05569106 0.023258189 -0.106174625 0.027289463 0.07347288 -0.09187467
-0.02472496 0.0022705174 0.102764815 -0.08104727 0.041110642 -0.031738237 0.03397661 -0.08226026
-0.09820453 0.05548198 0.0988103 -0.0034966194 -0.06511205 -0.09135201 0.0012195754 0.006494045
0.05325791 0.028459413 0.04445114 -0.04027246 0.020937115 0.058723185 0.100291245 -0.10462802
-0.060241938 -0.08070064 -0.0585553 -0.06372057 -0.07665454 0.074909315 -0.058692943 -0.07352587
-0.08662618 -0.06209641 0.09476138 -0.013722561 -0.060053498 0.0064231753 -0.048569653 -0.01599195
0.0390029 -0.057895616 -0.09981759 -0.0960062 -0.035132807 0.040830664 -0.08127223 -0.029837277
0.08287182 0.042659365 0.03734849 -0.013167235 0.103428796 -0.0606565 -0.021443525 -0.04027115
0.024008008 0.021569746 -0.06320015 -0.046408 -0.02231766 -0.007186332 -0.048599254 0.040143423
0.054352764 -0.09068572 -0.038345046 -0.080394536 -0.09526732 -0.00376584 -0.0024965368 -0.004886968
0.006764594 -0.10739895 0.036668763 -0.04631499 -0.056236256 -0.10112912 0.023743443 0.0084798895
-0.021344202 -0.040976472 -0.01702452 0.08651324 0.065661244 -0.088880554 0.030662702 -0.017190445
-0.0853608 0.083110444 0.029982762 -0.0057807323 -0.031974353 -0.0049652364 -0.027066523 -0.06199879

fc2.bias f4 [10]
00000000: 18fb 80bd 1ac4 623d 2743 0e3d e766 333d
00000010: 9b4c 2c3d bb37 b2bc 2def 67bd 6d57 81bc
00000020: 3fbc bc3c 0f2a 2fbd
-0.06297892 0.0553628 0.03473201 0.043799307 0.042065244 -0.02175509 -0.05662458 -0.015788758
0.023038981 -0.04276472
