model.pth (torch, 902760 bytes, 8 tensors)

conv1.weight f4 [32, 1, 3, 3]
000000 98 d9 a0 3d 9f 91 b1 3e 50 22 63 be 30 37 8a be
       0.07854003 0.34681413 -0.22181058 -0.2699523
000010 e2 06 b2 3d 31 03 b4 3e 1d 18 85 bd 65 14 2a be
       0.08692719 0.35158685 -0.0649874 -0.16609342
000020 24 66 7c 3e ce 6c 09 3e 4d 2f 47 3e 64 44 2a be
       0.24648339 0.13420412 0.19451638 -0.16627651
000030 7e e9 76 ba e1 1b 38 3e b2 fc 9f 3e f3 51 6a 3e
       -0.00094189483 0.17979385 0.3124748 0.22882824
000040 c2 a5 f3 3d e4 f7 ba bd d0 3b d9 3d db 0c 1b 3e
       0.1189685 -0.09129313 0.106071115 0.15141623
000050 a7 ad 81 bd 8c 33 44 3e cb 23 55 3e ee bd 4e 3e
       -0.0633195 0.19160289 0.20814435 0.2018964
000060 46 c1 17 be 6b 7c bd 3d e1 b0 81 be cb 7f 13 bd
       -0.14819822 0.092522465 -0.2533026 -0.036010545
000070 90 dd 83 be fd 42 89 3d 97 17 99 bd 68 f7 17 bd
       -0.25754976 0.0670223 -0.074752025 -0.03710118
000080 98 fd a4 be 86 07 48 be 23 ee a8 be 87 57 e3 3d
       -0.32224727 -0.1953412 -0.32994184 0.11100679
000090 f9 5a eb 3a 9a 38 42 be 85 b1 38 be 6a 34 6b 3e
       0.0017956189 -0.18966904 -0.18036468 0.22969213
0000a0 7e 8a 9f be ee d1 5c 3e 7b ab 1b bd 80 f3 79 3e
       -0.3116035 0.21564457 -0.038005333 0.24409294
0000b0 d7 14 38 3e e8 b0 8b 3d b2 cc 80 be 53 da 60 be
       0.179767 0.068208516 -0.2515617 -0.21958284
0000c0 74 a5 86 bc 76 e2 dc bd f8 0d 71 be cc 7a 96 be
       -0.016436316 -0.107853815 -0.23540485 -0.29390562
0000d0 3f fe 82 3e 47 b2 ff 3d 3c f8 83 be e8 9a 1b be
       0.255846 0.124851756 -0.25775325 -0.15195811
0000e0 3d cb 5d be 2f de a9 3e c7 94 9e 3e 0a 47 85 3e
       -0.2165956 0.33177325 0.30972883 0.2603076
0000f0 95 2d 0e 3c 97 ec 37 3e 0a eb 2c 3d 7d b6 72 3d
       0.00867786 0.17961346 0.04221634 0.059256066
000100 38 b1 de bd 83 82 57 3e a7 1e b4 3e 56 68 87 3d
       -0.108736455 0.2104588 0.35179636 0.066116974
000110 e8 d2 88 be 8e c0 00 3e 99 99 f3 bd 84 79 d6 bd
       -0.2672341 0.12573454 -0.11894531 -0.10472396
000120 82 7f 8f be 20 06 26 bc 10 97 91 bd f0 ac 10 be
       -0.28026968 -0.010133296 -0.07108891 -0.1412847
000130 ae 66 6d be 30 99 bf 3d 28 f1 67 3d 80 be 92 bc
       -0.231837 0.0935539 0.05662647 -0.017913103
000140 88 53 40 be 56 85 5c 3e 3e df 42 bd e8 ad 1d 3d
       -0.18781865 0.21535239 -0.04757618 0.038495928
000150 04 95 16 3d 5b 7c 50 3e d8 b0 10 3e 87 2a dc bd
       0.036763206 0.20359938 0.1412996 -0.10750299
000160 76 0c 60 be 40 dd a0 be 10 b3 8b 3e 78 24 16 3e
       -0.21879753 -0.314188 0.2728505 0.14662349
000170 46 49 a4 3e 07 3e 96 be c2 8d f6 3d a9 e2 9c be
       0.32087153 -0.29344198 0.12038757 -0.30641678
000180 f2 d2 f8 3d 86 c2 aa bd 53 14 6b be 15 13 8b 3e
       0.121496096 -0.08337884 -0.22956972 0.27162996
000190 52 34 04 be f6 a9 e3 bd a7 bf 58 3e c4 ae 56 be
       -0.12910584 -0.11116402 0.2116686 -0.20965105
0001a0 16 1c 0e bc af 49 c4 bd 13 39 93 be da 9c c3 bd
       -0.008673688 -0.095843665 -0.28754482 -0.095514014
0001b0 7c b8 dd bd 2d cf 64 3e 4a df 02 3d fa c9 4c be
       -0.10826203 0.22344656 0.031951226 -0.19998923
0001c0 91 46 94 be 20 bb 80 3e 3f 29 55 bc 2e 93 5d be
       -0.28960088 0.25142765 -0.013010322 -0.21638176
0001d0 82 0d 03 3d f7 fb fd 3c 51 c6 86 be 2b de 2d 3e
       0.031995304 0.031003935 -0.26323178 0.16979282
0001e0 8a 17 7c be c5 eb 26 3d 0a 54 9a 3e 7d 49 f9 bd
       -0.24618354 0.04075219 0.30142242 -0.1217222
0001f0 39 ed b9 3d 82 95 90 3e 6b 0a 0a 3e c3 ec 31 be
       0.0907845 0.28239065 0.13480537 -0.17375474
000200 52 a3 aa be 53 7c fd 3d 65 ee 82 be e1 95 57 3e
       -0.3332773 0.123772286 -0.25572506 0.21053268
000210 36 69 90 be 51 bd 81 bd 63 98 60 be 57 db b6 bd
       -0.2820527 -0.06334937 -0.21933131 -0.089285545
000220 f4 99 4f 3e 6a c2 5f be be 18 8c 3e 64 b7 10 be
       0.20273572 -0.21851507 0.27362627 -0.14132458
000230 b4 66 e8 bd 99 c9 0b be 09 7a 5f bd a7 c3 f7 3d
       -0.11347714 -0.13651122 -0.05455974 0.120978646
000240 6b 08 7b 3e 29 09 67 be 02 d6 47 bc 72 e8 a1 3e
       0.2451493 -0.22562088 -0.0121970195 0.31622654
000250 84 8e cd 3d 01 84 64 3e ab b2 49 be ac 29 8d 3e
       0.10036948 0.2231598 -0.19697063 0.27570856
000260 cc 6e 23 3e cb f8 9f 3d 1a 23 92 3e 04 d9 8e 3d
       0.15960234 0.07811125 0.28542405 0.06974986
000270 00 0f 25 3e 59 f2 84 be 92 58 9f 3d 53 dc 80 be
       0.16119003 -0.25966147 0.07780565 -0.25168094
000280 30 cf fc 3d cb 41 74 3e 35 24 b4 3d b0 30 ad ba
       0.123442054 0.23853223 0.087959684 -0.0013213363
000290 f4 1e 91 be 6d e6 8d 3e fd 2a 9a 3e 8b 20 ad 3e
       -0.28343928 0.27714863 0.30110922 0.3381389
0002a0 c1 17 06 be 5e 58 47 be f5 d9 ad bd ed 84 1f 3e
       -0.13094999 -0.19467303 -0.08488838 0.15578051
0002b0 c7 20 86 bd 9e 08 42 3d 8e a1 2c be 19 eb a2 3e
       -0.065492205 0.0473715 -0.16858503 0.3181999
0002c0 23 23 bc bd 96 5f 58 be 9f 35 a1 be 35 4d aa be
       -0.09186389 -0.21130213 -0.31486222 -0.3326203
0002d0 9b c3 e4 3c 89 7c 29 3d b3 60 55 3e 93 fb 36 bd
       0.027925303 0.04137853 0.20837669 -0.044673514
0002e0 63 c3 00 be eb 47 8d be 7c dc d5 bd 9a a6 13 bd
       -0.12574534 -0.27593932 -0.10442445 -0.036047556
0002f0 80 01 7c 3c 73 a6 b5 bd 06 ee 13 3e c5 1d 1b bd
       0.015381217 -0.08869638 0.14446267 -0.037870187
000300 cd cd 9a 3e f0 87 4d 3e 5c 84 a8 3b 89 e8 1a be
       0.3023514 0.20071387 0.0051427316 -0.15127768
000310 48 42 82 bd a3 8f 3c 3e 00 ef 79 be 28 f6 04 be
       -0.063602984 0.18414168 -0.24407578 -0.12984526
000320 74 27 88 be 10 ed ae bd d8 1e 12 be 78 8c 1e bd
       -0.265926 -0.0854131 -0.14269578 -0.03870818
000330 04 0f 91 bd 00 7e 1a ba ce 10 92 be a0 d9 87 3c
       -0.07082942 -0.0005893409 -0.28528446 0.016583264
000340 16 4e 87 be 84 c5 90 bd 5f d3 ae 3d 9a f8 8e 3e
       -0.26426762 -0.07068923 0.085364096 0.27924043
000350 a8 df 25 3d 4b 5b a9 3e e7 12 7a 3e 56 14 e8 bc
       0.0404965 0.33077464 0.24421273 -0.02833001
000360 6c 52 78 3e cc 91 58 bb bd bd 8f be 72 16 b1 3e
       0.24250191 -0.0033045886 -0.28074446 0.34587437
000370 ac ba 10 3e 1c 50 80 3e f7 b0 af 3e 6f bc a1 bd
       0.1413371 0.2506112 0.343147 -0.07897269
000380 b6 c7 7d 3e 9e ca 7a be 05 05 9e be 9e 71 97 3e
       0.24783215 -0.24491355 -0.30863205 0.2957887
000390 d9 43 3c be a3 65 9b be 38 4e 87 3e f4 87 21 3c
       -0.18385257 -0.3035098 0.26426864 0.009859074
0003a0 95 e9 3a be 88 0b 5e 3e af 32 48 be fc fd 8b be
       -0.18253167 0.21684086 -0.19550584 -0.27342212
0003b0 ff 41 f9 bd d7 33 81 3c 9b e2 05 bd 96 7a 0a 3e
       -0.12170791 0.01577179 -0.03268681 0.13523325
0003c0 ea b6 9a be 59 5d 4e 3e 1e ec 85 3e e9 27 4f bc
       -0.30217677 0.20152797 0.26156706 -0.012643793
0003d0 6c 19 2d 3e c5 09 91 3e 63 f7 40 be 78 f8 1e be
       0.16904229 0.28327766 -0.1884437 -0.15524471
0003e0 bd 7f 88 be 20 1d 5a be df d5 24 3e 3c 62 9c bd
       -0.26659957 -0.21300173 0.1609721 -0.07635924
0003f0 d6 7f 89 bd fe 64 83 3e 2a 62 27 3d 39 8b a1 be
       -0.06713836 0.25662988 0.0408651 -0.3155153

conv1.bias f4 [32]
000000 84 4f 31 3e 6e 7a 63 3e 9a e4 05 bc 36 ce 1c 3e
       0.17315489 0.22214672 -0.008172179 0.15313038
000010 8f 45 4d 3d ac b2 58 be 45 0b 8c 3c ac e3 9c 3d
       0.050115164 -0.21161908 0.017095217 0.076606125
000020 2b 1c 54 be 22 3f 01 3d 9e 77 9e bd 3a df 25 be
       -0.2071387 0.03155435 -0.07737659 -0.16198435
000030 d0 7c 99 bc 38 4e 1f 3e 82 a4 53 3e 51 ac 75 3e
       -0.018736273 0.15557182 0.20668224 0.23991515
000040 f2 fd 9c 3e 59 50 25 be f1 0c 3f 3e 91 79 3f 3e
       0.30662495 -0.16143931 0.1865728 0.18698718
000050 0e fa 11 3e 7d ca a0 be 40 10 23 bd 71 15 a3 bd
       0.14255545 -0.31404486 -0.03981042 -0.07963074
000060 70 72 8f be 45 ff 23 be c0 1b 84 be c3 78 6f bb
       -0.28016996 -0.16015346 -0.25802422 -0.0036540485
000070 85 e4 7a be 7b 49 f9 3d 94 07 7a 3e e2 e6 62 3c
       -0.24501236 0.121722184 0.24416953 0.013848992

conv2.weight f4 [64, 32, 3, 3]
000000 a0 74 96 bc 5a aa 87 3d c6 78 94 3d cd 4e 88 bb
       -0.018366158 0.06624289 0.07249598 -0.0041597844
000010 71 e3 ef 3c e0 96 16 3d 23 9c 58 bd c7 f4 93 3d
       0.029283257 0.03676498 -0.05288328 0.07224422
000020 77 24 80 3c 86 02 34 3d c1 8e 6a 3d fa 22 5b 3c
       0.015642388 0.04394772 0.057265047 0.013375038
000030 d4 e0 29 bd 6e e4 f7 3c de cd 9a 3d 1f a5 00 3d
       -0.04147418 0.030260291 0.07558797 0.03140747
000040 25 eb af bc b9 8a 13 3d b6 10 a0 3c ac 81 65 3b
       -0.02147443 0.036020968 0.019539218 0.0035019917
000050 b1 09 5c 3c 6a 7d 3a 3c d5 06 e2 3c 6d 38 22 3d
       0.013430045 0.01138244 0.027591148 0.039604593
000060 e6 84 cf bc 79 93 65 3d a6 b7 c6 3c 02 a9 42 3d
       -0.025331926 0.056048844 0.024257492 0.04752446
000070 20 f3 2d bd 26 68 4e bd 6e c8 78 3d f7 9b f3 bc
       -0.04246819 -0.050392292 0.06073802 -0.029737456
000080 03 26 78 bd 05 8a 0d bd 9a 78 01 3d 44 de cc b9
       -0.060583126 -0.034555454 0.031609155 -0.00039075513
000090 56 9d 0f 3d 3b ce 3d bc 91 0d 86 3d 74 c7 2a bd
       0.035062157 -0.011584814 0.06545556 -0.04169412
0000a0 82 96 19 3d c3 68 58 3d 65 3b 38 3d 82 c9 f1 3c
       0.03749705 0.052834284 0.044978518 0.029515032
0000b0 ba b2 39 3d f1 09 49 3d 81 52 99 bc 1d 17 6c 3d
       0.045336463 0.049081746 -0.018716099 0.05763923
0000c0 48 d8 0f 3d 65 5f 66 bc 8c 1a 33 bc 61 b7 c0 3c
       0.03511837 -0.01406083 -0.010931622 0.023524942
0000d0 e2 cb fd 3c 99 ca 11 bd bc ae 62 bd 41 59 d3 3c
       0.030981008 -0.035593603 -0.05534242 0.025799396
0000e0 80 c4 8b 3d 48 c8 92 bd 62 0a 3c 3c b3 71 24 3d
       0.06824589 -0.07167107 0.011477085 0.040147495
0000f0 e8 ec 94 3d e8 8e 0f 3d d1 1a 8a 3d e9 74 5b 3d
       0.07271749 0.035048395 0.06743396 0.05357829
000100 f6 31 8d bd be db 37 3c ba 2d ca bc ac d7 80 bb
       -0.06894295 0.011221824 -0.024680007 -0.00393196
000110 f5 0c 2a bd fc 14 26 3d 4f 03 13 3d 21 04 47 3d
       -0.041516263 0.040547356 0.035891827 0.048587922
000120 00 73 fb b9 aa 56 cd 3c 00 5c 87 3a fa fb f0 3c
       -0.00047960132 0.025065739 0.0010327101 0.029417027
000130 d0 01 7d 3b c6 44 97 3c 40 fe 0b bd a6 82 f1 bc
       0.0038605817 0.01846541 -0.03417802 -0.029481243
000140 83 44 ea bc 5d a8 82 3d 07 86 2c bc 08 fb b1 3c
       -0.028597122 0.06379769 -0.0105300015 0.021726146
000150 5e fd f3 3c f5 4d 80 bd 7f 09 4e 3d 12 20 ef bb
       0.0297839 -0.06264869 0.050302025 -0.0072975243
000160 2d 61 c4 3c fb 78 1d bd 6e 42 04 3d 08 76 89 bd
       0.023972118 -0.038445454 0.032289915 -0.06711966
000170 14 fd a6 bc ab a9 48 bc 31 e2 f7 bc 66 0e 65 3d
       -0.020384349 -0.012247483 -0.030259224 0.055921935
000180 0b 5b 53 bd 5c 00 c2 3c e7 71 7a 3c a8 85 be b9
       -0.051600497 0.023681812 0.0152859455 -0.00036339206
000190 ec 52 df ba ce 54 07 bd 58 20 84 3c 62 34 17 3b
       -0.0017038262 -0.03303986 0.016128704 0.0023071994
0001a0 ee 94 00 3d e6 d3 e1 3c 39 9e e4 3c 03 c7 f5 3b
       0.03139203 0.027566861 0.027907478 0.0075005307
0001b0 f2 f1 5d 3c b4 b3 a9 3c 68 0c a8 3c a6 e4 12 bd
       0.013546454 0.020715572 0.020513728 -0.035862587
0001c0 d4 e9 35 3c 58 fb 80 bb fc da e2 bc 63 18 ba bc
       0.011103112 -0.0039362125 -0.02769231 -0.022716707
0001d0 51 7e 80 3d 4d 0d 65 bd af de 2a 3d 0b a8 71 3c
       0.06274093 -0.055920888 0.041716274 0.014749537
0001e0 23 07 8b bd f6 6d 4c 3c bb 24 83 3d d1 a0 41 3d
       -0.067884706 0.012477389 0.0640349 0.047272507
0001f0 72 4a f5 bc 28 46 91 bc dc 7c 8e 3d c0 54 3c bd
       -0.029942725 -0.017733648 0.06957409 -0.04597926
000200 46 c5 d5 3c 95 11 21 3d 6e 9a 90 bd f1 54 b4 ba
       0.026095044 0.03932341 -0.07060705 -0.0013758225
000210 4b ca 9b bc 4a b3 08 bb 85 b5 44 3c 0d a9 4f 3d
       -0.01901736 -0.0020858818 0.012006168 0.05069833
000220 52 fc 42 bd da 2e 88 3d 03 86 4f bd 9b 7a 58 3d
       -0.047603913 0.06649561 -0.050664913 0.0528513
000230 ca ea bc bc cb c4 5a bd 31 c6 a7 3c 65 0d 88 3d
       -0.023061175 -0.053410333 0.020480247 0.0664318
000240 28 fe 13 bd 0c 96 8a 3c 59 74 8c 3c 20 a1 9c 3c
       -0.036131054 0.016917251 0.017145323 0.0191198
000250 48 41 af bc 16 1f d8 bc c2 d9 8a 3b 4a 38 11 bc
       -0.021393433 -0.02638201 0.0042373845 -0.008863518
000260 ac 73 0d bd 17 f8 fb 3b 73 5a 2e bd 0d ca 0b 3d
       -0.03453414 0.0076894867 -0.042566728 0.034128238
000270 ff aa 91 bc ae 56 93 3d c5 b4 9a 3d ea 19 7f bb
       -0.017781733 0.07194267 0.0755401 -0.0038925358
000280 c5 33 21 bd 46 d7 a1 3c a0 bf 55 bd b2 4b 2e bd
       -0.039356012 0.01975597 -0.0521847 -0.042552657
000290 1d dd f7 3b 1b f3 fb bc dc b0 09 bd 42 85 d9 bb
       0.0075642006 -0.03075557 -0.033615932 -0.0066382
0002a0 ba 0c 85 3d 62 a4 59 bb 00 a4 e8 bc 26 83 17 3c
       0.06496568 -0.0033209552 -0.028398514 0.009247577
0002b0 72 fd 66 bd ce d2 36 bc 57 11 5a 3d 65 5b 34 bd
       -0.056394048 -0.011158658 0.053239193 -0.044032473
0002c0 88 f0 d9 3a 7c 90 87 bd 9c fc 83 bd 3a 9b 49 bd
       0.001662747 -0.06619355 -0.06444666 -0.0492203
0002d0 97 f9 92 3c 01 51 31 bd fb 21 e3 3c 66 e5 8b bc
       0.01794128 -0.043290142 0.027726164 -0.01707716
0002e0 56 85 a2 3c 58 a3 9d bd 0b 26 fa 3c ae ce a4 bb
       0.01983897 -0.07697171 0.030535718 -0.005029521
0002f0 12 e7 95 bd 32 6c 5e 3b 23 b1 b9 3b 7a 35 12 3d
       -0.07319464 0.0033939 0.0056668683 0.03569553
000300 82 2d d6 bc 88 23 e6 bc df 04 b9 bc af a2 f0 bc
       -0.026144747 -0.028093114 -0.02258533 -0.029374449
000310 90 59 0d 3d 53 65 d1 3c 60 a2 ae ba 1a 05 c0 3c
       0.03450924 0.02556101 -0.0013323538 0.023439933
000320 c9 85 21 3d 88 83 25 bd 1f c4 36 bd 14 f1 04 bd
       0.039434228 -0.04040864 -0.04462063 -0.032456473
000330 43 63 6d bd 79 6a 05 3d 1f a2 49 3d c1 88 83 bc
       -0.05795599 0.032572243 0.049226876 -0.01605642
000340 91 ab 2f bd 7b a4 32 3d 20 b6 82 bc 57 d6 26 bd
       -0.042888228 0.043613892 -0.015955985 -0.040731754
000350 08 7f 33 3d 6c be 06 bd 93 21 53 3d cd fb 1b 3d
       0.04382232 -0.032896444 0.05154569 0.038081933
000360 32 46 c4 bc eb 77 8f bc f2 f0 bf bc 4e 11 4f bb
       -0.023959253 -0.017513236 -0.023430321 -0.0031596008
000370 ad 75 51 bd fd ba 21 bc 1b a0 bc 3c 16 d9 6e 3c
       -0.051137615 -0.009871242 0.023025563 0.0145781245
000380 e6 d2 84 3d 4f 23 44 bb 70 c7 2d 3d b0 82 c8 3c
       0.06485538 -0.0029928272 0.042426527 0.02447638
000390 32 43 b1 3c 56 e6 78 3d 6d 58 8a bc 48 ea 9e bd
       0.021638487 0.06076654 -0.016887868 -0.07759529
0003a0 65 d4 f9 bc 2c d5 03 3d bc 01 04 3d 8b 43 a9 bc
       -0.030496785 0.03218572 0.032228217 -0.02066209
0003b0 87 72 de bc 55 e2 9e bd 93 3b 02 bc c1 49 56 bc
       -0.02715422 -0.07758013 -0.007948774 -0.013079108
0003c0 f8 9b ef bb 6d b1 d7 3a 13 71 50 3d 91 31 37 bd
       -0.007312294 0.0016456075 0.050889086 -0.044725005
0003d0 d8 28 f1 3c c7 97 0a bd 0f fd 58 bd 87 a5 8b 3d
       0.029438421 -0.033836152 -0.05297571 0.06818681
0003e0 ae da ea bc 88 5f b0 bb 17 b9 82 ba 8b 00 b0 bc
       -0.028668728 -0.005382482 -0.0009973374 -0.021484634
0003f0 fb 70 34 bc bd b6 8f 3c d5 f3 6d 3d 7c 9f 56 bd
       -0.011013265 0.017543191 0.058093864 -0.05239819

conv2.bias f4 [64]
000000 1c 14 bb 3c 6b 68 1e 3b e3 2c cb bc 81 03 26 bd
       0.022836737 0.0024171125 -0.024801677 -0.040530685
000010 2d 13 2b 3d 93 c8 01 3d 56 c7 73 bc 56 1f 82 3d
       0.041766334 0.031685423 -0.014879068 0.06353633
000020 37 e0 eb 3c 07 ed f0 bc a9 75 4d bd 7c f7 d3 3c
       0.028793437 -0.029409898 -0.050161038 0.025874846
000030 11 11 1d 3d 7f 88 d0 bc b6 1a 3e 3d 79 5f 55 bc
       0.038346354 -0.025455711 0.046412192 -0.013023251
000040 84 5b 1a 3d ad c1 0f bd 01 9a 38 3d ad bc cd bb
       0.037684932 -0.035096813 0.045068745 -0.0062785954
000050 78 03 60 3d ae 79 4f bd 0c 8e d6 bc 85 68 17 3d
       0.054690808 -0.050653152 -0.02619078 0.036964912
000060 5d d5 d0 3c fa 01 23 3d c5 f4 41 bd 5d 1c 18 bb
       0.025492365 0.039796807 -0.04735257 -0.0023210265
000070 d1 15 de 3b a1 31 31 3d b0 49 29 bd 35 05 3c bd
       0.006777503 0.04326022 -0.04133004 -0.045903403
000080 39 8f 42 bd 77 e6 20 3d da ec 9c 3d 9d 71 8a 3d
       -0.04749987 0.03928229 0.07662363 0.06759951
000090 85 a7 69 bc 7e 1a 08 3d eb da 0e bd 8d bf 8f 3d
       -0.014261131 0.03322839 -0.034876745 0.07018957
0000a0 ea ba 9d 3c 1e 3c 91 3c ba fa 52 3d 3e 1c 04 3d
       0.019254167 0.017728861 0.051508643 0.032253496
0000b0 b9 08 be 3c 00 df 54 3d 84 a3 25 3c e7 9b 26 bd
       0.023197519 0.051970482 0.010109786 -0.040676024
0000c0 c7 d7 03 3d 5d 98 10 3d 67 32 40 bd 9e d6 94 3c
       0.032188203 0.035301555 -0.046923067 0.018168744
0000d0 c1 40 1c bb 22 90 02 bd eb de 7e 3d 6f d1 81 3d
       -0.0023842307 -0.031875737 0.06222431 0.063387744
0000e0 1a eb 0b 3d 7d f0 ff bb 6f 2c fe 3b f0 fd 94 3a
       0.034159757 -0.007810651 0.0077567617 0.0011367183
0000f0 97 da 2f bd 29 aa bc bb 01 e2 e2 bc a3 28 22 3c
       -0.042933073 -0.0057575894 -0.027695658 0.009897384

fc1.weight f4 [128, 1600]
000000 c1 7f 6f 3c ec 7c 9b bb 96 b8 c8 bc c0 04 fa bb
       0.014617861 -0.0047451165 -0.02450208 -0.007629961
000010 88 4d 81 bc 2c 63 f0 bc 01 3e 88 3c 55 4c cf bc
       -0.01578404 -0.029344164 0.016631128 -0.025304953
000020 65 cc ac 3c a9 97 40 bb 26 5d ad bb 4e ef 99 bc
       0.021093557 -0.0029387271 -0.005290645 -0.018790867
000030 d0 2a fd 3b 52 00 98 bb 43 cb 10 3b 17 15 f2 3b
       0.007726051 -0.00463871 0.002209381 0.007387768
000040 61 8e 40 bc 41 7f 0b bc ce e4 40 bc b7 a7 97 bb
       -0.011752696 -0.008514226 -0.011773301 -0.0046281475
000050 4a ef b3 bc d9 1d 37 bb 37 f7 7a bc 74 1c af bc
       -0.021964688 -0.0027941375 -0.01531773 -0.021375872
000060 9a 1d 13 bb 28 61 f0 3c 80 ce b4 3c bf 84 a0 ba
       -0.0022448064 0.029343203 0.022071123 -0.0012246593
000070 b2 3d a5 bc 70 60 1e bc 24 4e 1f 3b 61 ab e2 bc
       -0.02017102 -0.009666547 0.002430805 -0.02766961
000080 e6 06 6d 3c 22 d8 2c bc d4 ab 45 bb 8f 06 48 3c
       0.014466977 -0.010549577 -0.0030162232 0.012208595
000090 ea fd 98 bc 09 3d a5 bc 51 29 04 bc ba d7 3c bb
       -0.018675763 -0.020170705 -0.008066491 -0.0028815106
0000a0 0a fb 8d bc e0 44 1c 3a e8 82 d9 3b f0 83 85 3c
       -0.017331619 0.0005961191 0.0066379197 0.016298264
0000b0 c7 05 c1 bc 5c cb df 3b ec f3 0a bc fd 73 5e bc
       -0.023562325 0.0068296622 -0.008481007 -0.013577458
0000c0 22 16 9b 3c eb 95 91 bb ce f0 91 bc bb d5 9a 3c
       0.018931452 -0.0044429204 -0.01781502 0.018900743
0000d0 0c 66 28 3c 37 7f c8 bc 76 c5 86 3b 34 a7 ea bc
       0.010278236 -0.024474723 0.0041128946 -0.028644182
0000e0 ab 3a 3a 3c 45 d9 5d bb a0 0a 90 bc d5 4d 8a bb
       0.011366527 -0.0033851427 -0.017583191 -0.004220704
0000f0 69 f2 80 3c 43 2c 86 3c 79 e3 e3 ba 87 4a cf bc
       0.01574059 0.016378528 -0.0017386518 -0.025304092
000100 8d 5a 59 bb 31 5a 11 3c 4f f6 d8 bc f7 7f d5 bc
       -0.0033165545 0.008871601 -0.026484637 -0.026061995
000110 eb 15 37 3c 46 79 a0 3c 9d f8 51 3c 99 a1 92 bc
       0.011174659 0.019589078 0.012815622 -0.017899321
000120 d8 f4 88 39 e6 a0 95 bb 56 27 cb bc d2 43 65 3c
       0.00026122364 -0.0045662997 -0.02479903 0.01399322
000130 62 61 79 3c 7f 13 c5 3c b1 82 84 3c 06 d7 5f 3c
       0.015220972 0.024057148 0.0161756 0.013662105
000140 ed 7a be 3c 56 d1 70 3c 40 80 66 3a 15 68 87 bb
       0.023251975 0.014698347 0.00087929145 -0.0041322806
000150 f3 15 c8 3c 11 d4 93 3c 0a 1c 45 bc 31 a5 e5 bc
       0.024424529 0.018045457 -0.012030611 -0.028032871
000160 34 13 d5 3b a2 57 dc bb 00 b3 4b b9 70 87 51 bb
       0.0065025333 -0.006724314 -0.00019426271 -0.0031971596
000170 3b 33 44 3c 52 83 17 3c d8 2a fc bb 47 fa 6b bc
       0.011975105 0.009247618 -0.007695537 -0.0144029325
000180 b2 af 54 3c 3a 1c a6 3b f8 57 d5 bb dd 9b 92 3c
       0.012981342 0.005069283 -0.006510731 0.017896587
000190 a7 b9 42 bc 53 4f 8f 3c 40 66 d1 3c bc 70 a7 bb
       -0.011885083 0.01749388 0.025561452 -0.0051098745
0001a0 46 00 38 bc ac 1a 84 bc 05 e2 d9 3b d0 98 44 3c
       -0.011230534 -0.016126 0.006649258 0.011999324
0001b0 2d 8e dd bc 1c 89 f2 3c d8 c5 8c bb 9f f7 88 bc
       -0.027045334 0.029606394 -0.0042960458 -0.016719637
0001c0 57 93 4c bc e1 ec 29 3c 55 47 d4 3b 97 26 c3 3c
       -0.0124863 0.010371418 0.00647823 0.023822112
0001d0 d1 19 30 3c 36 38 37 3a 7e f9 9b b9 dc bd 8c 3c
       0.010748343 0.0006989272 -0.0002974979 0.017180376
0001e0 de 2c 84 bc 38 7c de bb d2 c1 03 bc 5b 25 60 3c
       -0.016134676 -0.0067897104 -0.008041816 0.013680781
0001f0 13 dd 1d 3c f5 17 0f bb cf 86 9f 3c 10 ca b8 3b
       0.009635228 -0.0021834348 0.019473461 0.005639322
000200 e3 fc a0 bc 59 dd 4a 3b f3 f1 c8 bc b2 4a e2 bc
       -0.019651836 0.0030954687 -0.024529433 -0.027623508
000210 71 a0 f1 3c f8 bc 21 3b c4 46 e4 3c e1 06 5b 3c
       0.02949545 0.0024679285 0.027865775 0.013368339
000220 56 1d f0 bb 82 7a 61 3a 9b e5 f5 3c 55 79 0d 3c
       -0.007327716 0.0008601324 0.030016711 0.008634885
000230 70 f5 8f bc f6 af 9a bc 9e b2 eb 3b ab 5b d2 bc
       -0.017573088 -0.018882733 0.0071929237 -0.025678476
000240 01 50 9a 3c 68 6a 45 3a bd 37 12 bc 1b df 2c bc
       0.018836977 0.00075308094 -0.008924422 -0.010551239
000250 ef cd 44 3c 4c bb b1 bc 47 e5 bf bc 47 c9 0d 3c
       0.012011989 -0.021695755 -0.023424758 0.008653945
000260 6d 12 93 bc c9 d7 d1 bc 31 8e 80 3c 74 85 de 3b
       -0.017953122 -0.02561559 0.015692802 0.006790811
000270 af 5b 4c 3b 5a 73 9d b9 fb e5 9c 3c 51 6d 8f 3c
       0.0031182577 -0.00030031317 0.019152632 0.01750818
000280 11 6b c8 3c 1e 51 78 3b 31 08 a7 3c a7 3d 5b 3c
       0.024465116 0.0037890146 0.020389648 0.013381398
000290 07 80 3d bc 51 46 94 3c 38 c8 34 bb e1 3e d1 3c
       -0.011566169 0.018099936 -0.002758516 0.025542678
0002a0 eb 0a 7a 3c b7 a5 c3 bc fb b3 c0 bc f2 a7 84 bc
       0.015261392 -0.02388273 -0.023523321 -0.016193364
0002b0 69 20 5b bc 4c f1 9e bc 56 0c 41 bc b9 2c ab bc
       -0.013374426 -0.019402169 -0.011782726 -0.020895349
0002c0 6e ff 6b bc c3 8e 40 bc 11 3e 88 bc d5 5f b4 bb
       -0.014404161 -0.011752787 -0.016631158 -0.005504588
0002d0 bc 64 1a 3c 6f 99 d5 bb 82 57 1a bb bc c4 97 3c
       0.009423431 -0.006518535 -0.0023550694 0.018526427
0002e0 8c 1e 02 bc bb 91 dd 3a cd 8d 73 3c b4 5f ac 3b
       -0.007941853 0.0016904393 0.014865351 0.005260432
0002f0 e1 1e 50 3c e4 41 dc bc ae b1 ea 3a df a4 4d 3c
       0.012702675 -0.026886888 0.0017905736 0.012551515
000300 96 ba 25 b9 40 63 f2 bc 20 be 58 bc 36 3a 0a 3b
       -0.00015805135 -0.029588342 -0.013228923 0.0021091825
000310 cb 7d d9 bc f7 b3 20 3c 76 9b da 3b 18 c1 98 3c
       -0.02654924 0.009808532 0.0066713644 0.018646762
000320 60 7f 87 bc 2d 76 30 bc 7e 37 f1 3c 10 5d 6d 3b
       -0.01654023 -0.010770363 0.029445406 0.00362188
000330 8d 72 89 bc da c1 8e bb 8f 54 99 bc c1 1e 84 3b
       -0.016778255 -0.004356605 -0.018717078 0.0040319865
000340 13 e5 84 3c 4d 74 a7 bc 5d 54 98 3b 87 d4 90 bc
       0.016222512 -0.020441199 0.0046487288 -0.017679466
000350 2e 75 85 bc 98 b8 99 bc c2 c5 0d 3c 9e b6 73 3b
       -0.016291227 -0.018764779 0.008653106 0.0037187706
000360 1a 68 e3 bb da 0c 4e 3c 38 f3 62 3c 1a bf 47 3c
       -0.0069399 0.012576306 0.013851933 0.012191558
000370 79 90 2c bc f0 09 8a bc be e0 81 3b fe 94 bf bc
       -0.010532492 -0.016850442 0.003963559 -0.023386475
000380 b6 ae 46 bc 48 ef 92 3b df 2e 47 bc 51 84 64 bc
       -0.012126615 0.004484091 -0.012157171 -0.013947562
000390 69 c4 6c 3c 36 ba 2f bc b0 b1 81 ba 70 56 5a 3c
       0.014451125 -0.0107255485 -0.0009894874 0.013326272
0003a0 2f ac 93 bc c1 5b ee bc ad 46 2a 3c d7 3b 98 3c
       -0.01802644 -0.029096486 0.010392827 0.018583221
0003b0 28 4b a9 bc 8d 80 dc bc 78 13 3f bb 1e 76 f5 39
       -0.02066572 -0.026916767 -0.0029155891 0.00046818046
0003c0 27 ae c2 3c f2 c2 f2 bc f9 d7 ad bc 5c b1 eb bc
       0.023764683 -0.029633973 -0.021221148 -0.028771095
0003d0 3f 71 50 3c 3b ae 35 bc d6 df 92 3c d9 39 9f 3c
       0.0127223125 -0.011088903 0.017928999 0.019436764
0003e0 a7 a3 c8 bc 53 4b 0c bc 46 32 1c 3c b0 36 88 3c
       -0.024492098 -0.008562881 0.0095334705 0.01662764
0003f0 17 da 91 bb d0 5a 9e ba 9f 7c de bc 7d 31 30 3c
       -0.004451047 -0.0012081508 -0.027159033 0.010753986

fc1.bias f4 [128]
000000 3f 96 9c 3c 48 ed 91 3c f4 bd ca 3c 8a 78 6b 3c
       0.019114612 0.01781334 0.02474878 0.0143720005
000010 58 97 8b bc 14 44 c6 3c 2a 20 8a bb 48 86 12 3c
       -0.01703994 0.024202384 -0.00421526 0.008943148
000020 d2 08 b5 bc 3b 28 6e bc a0 9e dc 3a ce 2d bd 3a
       -0.022098932 -0.014535959 0.0016831942 0.0014433207
000030 12 46 09 bc 1a 55 cb bc 35 10 8e bb 67 62 d2 bc
       -0.0083785225 -0.024820853 -0.004335428 -0.025681688
000040 57 d5 dc bc 2b 8a c3 3c 28 46 cb bc 21 c9 97 3c
       -0.026957197 0.023869595 -0.024813727 0.018528523
000050 15 10 42 bb c4 d8 94 3a 72 d8 eb 3c ff 51 1f bc
       -0.0029611636 0.0011356105 0.028789733 -0.009724139
000060 b7 96 ac 3c b4 e1 fb 3b 99 2e 3a 3c ab c9 d2 3c
       0.02106796 0.007686818 0.011363649 0.025730928
000070 ca c7 d0 bb 2a 07 2d 3c ec e6 0e 3b a0 39 01 bc
       -0.006371473 0.01056079 0.002180512 -0.007887274
000080 bf 30 c2 bc 4f 86 45 bb ce 69 76 b8 ad 6a c2 3c
       -0.023704885 -0.0030139869 -5.874951e-05 0.023732508
000090 ea d4 ce 3c 9f 6e bd bc 07 75 83 3c b1 60 a7 3c
       0.02524801 -0.023124037 0.016047014 0.020431848
0000a0 60 c3 06 3d 4e 2c 24 3a 58 45 bf 3b af de b8 bc
       0.032901168 0.00062627054 0.005837124 -0.022567121
0000b0 1a d0 44 bb fc 5c 5c 3c 91 b4 cf bb c9 f4 b9 bc
       -0.0030031265 0.013449904 -0.006338664 -0.02269973
0000c0 89 14 a1 3a fc a6 75 3c b3 ed 0a bc 0b a5 bc bc
       0.0012289445 0.014993425 -0.0084795235 -0.023027917
0000d0 95 5f 79 3a 77 0d 0c 3b d0 b3 87 3c 21 f8 12 3d
       0.0009512839 0.002137033 0.016565233 0.035881165
0000e0 10 75 92 bc 5e 3c 0a 3c a1 19 eb 3c 7e d9 e3 3c
       -0.017878085 0.008437244 0.028698744 0.02781367
0000f0 26 f7 b8 bc 23 bb b4 3c 24 c8 82 bc ea 6a 66 bc
       -0.022578787 0.02206189 -0.015964575 -0.014063576
000100 41 7b 6f 3b 35 4b 96 3c 88 1e 59 bc 47 26 7b bc
       0.003654197 0.018346408 -0.013251908 -0.01532895
000110 a7 2f 10 3d db d4 a2 bb 53 fc dc bb 4b bd 47 3c
       0.035201695 -0.004969222 -0.0067439466 0.012191127
000120 9e 1b 56 3b 43 d1 e8 bc 27 46 b7 3b 5b f6 45 3c
       0.003267027 -0.028420096 0.0055930796 0.0120826615
000130 7e a3 fc 3b 1b ce b7 3c e9 48 5e 3b 17 6a ca bb
       0.0077099195 0.022437146 0.003391797 -0.0061771977
000140 02 6b ea 3c 02 ab 86 3c 27 9a aa 3b 0a 83 69 3c
       0.028615478 0.016438965 0.0052063647 0.014252434
000150 d7 a0 01 bc 67 6c 81 3c e8 95 4a 3c 08 ad 6b 3c
       -0.007911882 0.01579876 0.012364842 0.014384516
000160 8b a5 be 3b 90 5b b3 3c f1 55 2a 3d 7d b2 90 3b
       0.005818074 0.021894246 0.041585866 0.0044158087
000170 ad 0d c2 bc 09 1a 21 3d 1d 39 db bc fc c3 32 3c
       -0.023688162 0.03933147 -0.026760632 0.010910984
000180 61 86 92 3c 4e f2 db 3c 06 a6 a6 3c 9a c5 d8 3c
       0.017886342 0.026848938 0.020342838 0.026461411
000190 42 c3 20 ba b2 ce 36 3c 2e af 5b 3c 18 84 92 bc
       -0.00061326113 0.011157678 0.013408465 -0.017885253
0001a0 7e 69 49 bb 30 e7 ec bc f0 b9 47 bb 9e 17 04 bc
       -0.0030733044 -0.028918833 -0.0030475818 -0.008062271
0001b0 1c 4b a2 3c 02 7d c3 bc 86 ec 1a 3c aa bd 86 3c
       0.019811206 -0.02386332 0.009455806 0.01644786
0001c0 24 81 fe 3c a5 d4 8b bc cc 16 71 bc a7 3f 71 bc
       0.031067438 -0.01706917 -0.014714908 -0.014724649
0001d0 b3 24 b4 ba 17 14 ea bc a0 c3 29 3c 9a dc c7 3b
       -0.0013743847 -0.028574033 0.010361582 0.006099296
0001e0 71 f9 e6 bb 3c c1 59 bc 97 0b c5 bc e1 17 95 3b
       -0.0070487787 -0.0132907 -0.024053378 0.0045499657
0001f0 8e d9 f1 3c 8a 92 97 3c 26 3f 92 bc d4 ef c5 bb
       0.029522683 0.018502492 -0.017852377 -0.0060405526

fc2.weight f4 [10, 128]
000000 4f 0f 8c bd b1 67 38 3a 3c eb b2 bd d5 63 2f bd
       -0.068388574 0.0007034494 -0.08736274 -0.042819817
000010 82 12 1f bd a8 cd dc 3c 78 ce 61 bc 43 a1 86 bd
       -0.03883601 0.026953533 -0.013782136 -0.06573727
000020 00 b5 1e bd 28 05 56 3c 16 44 d6 bc ba 51 6e ba
       -0.038746834 0.013062753 -0.026155513 -0.00090911577
000030 c8 86 96 3d 70 8e b1 3c 4d 33 01 3c 4f 9d 70 3d
       0.07349926 0.021674365 0.007885766 0.05874377
000040 7f be b5 bd 21 29 a4 bd a2 d0 91 3d 0b 7b d7 bd
       -0.08874225 -0.08015657 0.07119872 -0.105215155
000050 f0 77 3b bd c6 36 ad bc d5 ae 4b bd a3 a2 ea 3c
       -0.04576868 -0.021144282 -0.04972728 0.028642004
000060 98 64 63 bd 81 dc 84 3d d8 35 8b bd 6c 52 03 3d
       -0.055515856 0.0648737 -0.06797379 0.032061026
000070 65 81 5c bd 42 d1 18 bb 7a 51 ce 3d 7d 39 a8 3d
       -0.053834338 -0.0023318087 0.10074134 0.0821409
000080 f0 73 bf bd 41 2d d2 3d e9 ab 94 bb b1 60 d9 3d
       -0.09348285 0.10262538 -0.004537095 0.106141455
000090 85 e0 8a 3d 86 c9 92 3d 2f ac 36 bd f9 69 30 bd
       0.06781105 0.07167344 -0.0445978 -0.043069813
0000a0 09 09 2b 3d 0c f9 2e bb 08 0f cf bd 20 02 f5 bb
       0.041756663 -0.0026698736 -0.10110289 -0.00747706
0000b0 ca 5a 4e bd 15 7a 9b 3d 6f fb 52 bc cd 19 77 3d
       -0.050379552 0.07591645 -0.012877329 0.06032734
0000c0 da c3 91 bd 6b f1 bd 3d df ac 20 3d 41 ba aa 3d
       -0.07117434 0.092745624 0.039227363 0.08336306
0000d0 1a 55 bb bc 8f d0 cd bd dd 35 65 3d d8 72 af 3a
       -0.022867728 -0.10049545 0.05595957 0.0013385667
0000e0 d4 07 46 3c 03 6d 1e 3c 89 03 1b 3c 61 68 b5 bd
       0.012086827 0.009669545 0.009461292 -0.08857799
0000f0 3c fc c9 3d fb d9 6a bd 2e 15 f6 3b 98 22 d5 bc
       0.09862563 -0.05733679 0.007509849 -0.026017472
000100 ea 62 df 3c 1b bd dc 3c 36 ed ca bd 54 56 9e 3c
       0.027268846 0.026945641 -0.09908526 0.019328274
000110 bb 46 ca 3d 0d 7c 69 3c e1 c3 8b bd 48 17 a8 bd
       0.09876772 0.014250767 -0.0682447 -0.082075655
000120 06 29 92 bd 63 1d 53 3d 8d 86 58 bd e7 97 d1 3d
       -0.07136731 0.051541697 -0.052862693 0.10234051
000130 ee 59 9e 3d f4 45 8a 3d 4d 77 b5 bd 9c 66 95 3c
       0.077319965 0.06751624 -0.088606454 0.018237405
000140 44 8b 99 3d ec 07 2c bd b0 a3 6d bd 2e 6a 28 3d
       0.07497266 -0.041999742 -0.058017433 0.041116886
000150 12 7f 94 bd 02 76 9d bc d8 bc 04 3d b1 23 25 bd
       -0.07250799 -0.01922131 0.032406658 -0.04031724
000160 bc 9e 9a ba d6 f1 bd bc 4b dd b8 bc 46 cb 3b 3d
       -0.0011796574 -0.023186605 -0.022566458 0.045848154
000170 25 80 9e 3d e9 5d 9a 3c d1 61 4d bd ac 91 9c bd
       0.077392854 0.018843608 -0.050142113 -0.07644972
000180 6f b3 c4 bd c0 0a a2 3d ba c1 3c 3d 14 d8 a0 bd
       -0.09604537 0.07912207 0.04608319 -0.07853714
000190 4c ec c1 bd 1c 41 26 3d 69 b1 94 bd f7 c2 82 3d
       -0.09468898 0.040589437 -0.07260401 0.06384843
0001a0 47 cf a3 3d 85 cd e4 39 99 fd a3 3d 24 75 b6 bd
       0.079985194 0.00043640673 0.08007354 -0.089090616
0001b0 29 5c 00 3d b0 9b 9b bd e6 fd 44 3d 6c 17 bf 3d
       0.03133789 -0.075980544 0.0480937 0.09330639
0001c0 c7 d7 a1 3d f2 c0 b1 3a b4 8b 70 3d 3f 0a 6c bd
       0.079024844 0.001356153 0.05872698 -0.05762696
0001d0 4d 5f ac 3d e1 7e 08 bd 69 46 c1 bd 3f 7f 47 3c
       0.08416615 -0.033324126 -0.09437258 0.012176334
0001e0 e2 61 9b 3d 51 3f d6 bd 70 f9 a6 bd eb 4b 48 bd
       0.07587029 -0.104612954 -0.08153045 -0.048900526
0001f0 f8 fe 87 bd d2 ea 8d 3d 96 5e a8 bd d6 1e 8e 3c
       -0.06640428 0.06929554 -0.08221166 0.017348688
000200 1e ba 93 bd 9c a0 e2 3b 44 b4 ce 39 f5 e9 c4 bd
       -0.072132334 0.006916119 0.0003942569 -0.09614936
000210 89 de 53 3d f0 81 91 3c 85 93 85 bb ee 16 93 bd
       0.051725898 0.017762154 -0.0040764236 -0.07182108
000220 62 ee fb 3b 21 18 74 3c 59 53 46 bd 55 43 ad bd
       0.0076883296 0.014898331 -0.04841933 -0.08460108
000230 33 df 7a bc 44 9c b9 3c 69 88 79 bd a9 56 60 bd
       -0.015312004 0.022657521 -0.060921106 -0.054770146
000240 78 63 71 3d 28 08 fc 3c 9d a8 e3 3c 60 0b 5e 3d
       0.05893275 0.030765608 0.027790362 0.054210067
000250 f4 b8 a1 3d 53 47 a3 3d d3 83 2b 3c 4c 8d 4e 3d
       0.07896605 0.079725884 0.010468441 0.05042772
000260 ce 98 dc 3c 36 b3 03 bd 5d 6c cf 3d 1c c9 99 bc
       0.026928332 -0.03215333 0.101280905 -0.018772654
000270 62 f2 87 bd 5e cd dc bd 0b 0d 55 3d c6 9c 5f bd
       -0.06638028 -0.10781358 0.052014392 -0.05459287
000280 8c 30 04 bd 7e 57 08 bd 9e 64 47 bd af de d7 bd
       -0.03227286 -0.033286564 -0.04867994 -0.105405204
000290 89 1d 41 3b 04 cd 51 bd a3 3b cf 3d 19 61 92 3d
       0.0029467067 -0.05122091 0.10118797 0.07147426
0002a0 90 87 8b 3d 44 81 91 bc 3e 68 59 3d ce a6 e8 bc
       0.06812966 -0.017761834 0.05307793 -0.028399851
0002b0 4c e8 b6 bd c1 4b 6b bd f1 43 a0 bd 19 17 a1 bd
       -0.08931026 -0.05744529 -0.07825459 -0.07865734
0002c0 ae bd 36 3c 9d 6a 47 3c dc 98 99 bd 10 1f 56 3c
       0.011153622 0.012171415 -0.07499859 0.013068929
0002d0 56 ea d4 3c ec 59 86 3d a8 ca 99 3d 8c ef ab 3d
       0.025990646 0.0656012 0.07509357 0.08395299
0002e0 5c 55 83 bc 63 25 b7 bd 93 d4 fe 3c 62 4e 13 3d
       -0.016031913 -0.08942678 0.031107223 0.035963424
0002f0 57 eb c7 bd cc 9c 53 3d ab 4c 82 3d 44 f9 63 bd
       -0.097616844 0.051663205 0.063622795 -0.05565764
000300 52 57 8c 3a 29 5b 81 bc 4d 18 ab 3d 1e 0e 56 3d
       0.0010707176 -0.015790539 0.083542444 0.052259557
000310 bb 06 7b 3d 8a 50 cd 3c ac 9b a0 bd cf 3f 76 bc
       0.061285716 0.025062818 -0.07842192 -0.015029862
000320 c3 d7 87 bd f8 bd 40 bd bc 80 95 39 a6 90 74 bc
       -0.0663295 -0.04705617 0.0002851541 -0.014927065
000330 c3 ff e8 bc d7 fc 4e 3d 80 99 1a bd 5d ad c5 3b
       -0.02844227 0.050534096 -0.037744045 0.0060326294
000340 c0 33 88 ba 68 ee ca 3c 98 32 6d 3d cc c2 e9 bc
       -0.0010391399 0.024771884 0.057909578 -0.02853527
000350 b3 d5 d5 bd 0f d9 3b bd f5 6a 8a bd 95 96 68 bd
       -0.104411505 -0.0458613 -0.06758682 -0.05678423
000360 82 03 56 3d d3 de 79 3d ef 74 32 3d f8 f3 5a 3d
       0.05224944 0.061003517 0.043568548 0.053455323
000370 bb 88 a7 3d dd 60 5f 3d 06 19 e0 bc 5a fd 4e 3d
       0.08180376 0.054535735 -0.027355682 0.050534584
000380 ef 50 a3 bd 22 ab 60 3d 6e ca b3 bd d9 03 11 3d
       -0.07974421 0.054850705 -0.08778845 0.03540406
000390 f7 44 a0 bd b2 c4 43 bc 9a 1c 9d bd 7f 03 34 3d
       -0.07825654 -0.011948751 -0.07671471 0.043948647
0003a0 65 1a 10 bd 14 db e8 bc 9f 94 b1 3d a6 7a 6f bb
       -0.03518142 -0.028424777 0.08670925 -0.003654161
0003b0 d7 83 ee bb 5b 79 9b 3d 22 d7 3a 3d e6 9d 5f 3d
       -0.0072789 0.07591506 0.045615323 0.054593943
0003c0 73 b1 64 bc 6f 80 82 3d 61 3c 1e bd ca 25 aa bc
       -0.013958323 0.06372153 -0.0386318 -0.020769972
0003d0 2d 29 9b bd 01 23 93 bc 9e 2e c5 3c 4e 97 81 3d
       -0.07576213 -0.017961027 0.02407008 0.06327687
0003e0 30 e1 76 bd 43 ce 38 ba 0d 4b b7 bc 4b a5 32 3b
       -0.06027335 -0.00070497784 -0.022374654 0.0027259167
0003f0 dd 05 9e 3d 8d cd c4 3d 60 a4 3f bd 12 03 d4 bc
       0.07715962 0.09609518 -0.04678762 -0.02588037

fc2.bias f4 [10]
000000 4a d3 3e bd a1 df c3 bc 04 37 ae 3d 7d 8d 93 bc
       -0.04658822 -0.023910346 0.08506587 -0.018011803
000010 33 da 0f bd 9b 34 85 bd 56 72 d0 3a 6d 62 02 3d
       -0.0351202 -0.06504174 0.0015903215 0.031832147
000020 8c 5a 9e bd d7 95 09 3d
       -0.07732114 0.033590164
